…
æ‰“å°æ•°æ® .jsonl /mnt/ceph_rbd/comp_rag/unirag/debug_data/pretrain_data.jsonl
Adapter decoder_adapter trainable parameters: 41943040
Adapter encoder_adapter trainable parameters: 41943040
Adapter decoder_adapter trainable parameters: 41943040
Adapter encoder_adapter trainable parameters: 41943040
æ‰“å°æ•°æ® .jsonl /mnt/ceph_rbd/comp_rag/unirag/debug_data/pretrain_data.jsonl
æ‰“å°æ•°æ® .jsonl /mnt/ceph_rbd/comp_rag/unirag/debug_data/pretrain_data.jsonl
Adapter decoder_adapter trainable parameters: 41943040
Adapter encoder_adapter trainable parameters: 41943040
UniRAG(
  (decoder): MistralForCausalLM(
    (model): MistralModel(
      (embed_tokens): Embedding(32011, 4096)
      (layers): ModuleList(
        (0-31): 32 x MistralDecoderLayer(
          (self_attn): MistralAttention(
            (q_proj): lora.Linear(
              (base_layer): Linear(in_features=4096, out_features=4096, bias=False)
              (lora_dropout): ModuleDict(
                (decoder_adapter): Dropout(p=0.1, inplace=False)
                (encoder_adapter): Dropout(p=0.1, inplace=False)
              )
              (lora_A): ModuleDict(
                (decoder_adapter): Linear(in_features=4096, out_features=16, bias=False)
                (encoder_adapter): Linear(in_features=4096, out_features=16, bias=False)
              )
              (lora_B): ModuleDict(
                (decoder_adapter): Linear(in_features=16, out_features=4096, bias=False)
                (encoder_adapter): Linear(in_features=16, out_features=4096, bias=False)
              )
              (lora_embedding_A): ParameterDict()
              (lora_embedding_B): ParameterDict()
              (lora_magnitude_vector): ModuleDict()
            )
            (k_proj): lora.Linear(
              (base_layer): Linear(in_features=4096, out_features=1024, bias=False)
              (lora_dropout): ModuleDict(
                (decoder_adapter): Dropout(p=0.1, inplace=False)
                (encoder_adapter): Dropout(p=0.1, inplace=False)
              )
              (lora_A): ModuleDict(
                (decoder_adapter): Linear(in_features=4096, out_features=16, bias=False)
                (encoder_adapter): Linear(in_features=4096, out_features=16, bias=False)
              )
              (lora_B): ModuleDict(
                (decoder_adapter): Linear(in_features=16, out_features=1024, bias=False)
                (encoder_adapter): Linear(in_features=16, out_features=1024, bias=False)
              )
              (lora_embedding_A): ParameterDict()
              (lora_embedding_B): ParameterDict()
              (lora_magnitude_vector): ModuleDict()
            )
            (v_proj): lora.Linear(
              (base_layer): Linear(in_features=4096, out_features=1024, bias=False)
              (lora_dropout): ModuleDict(
                (decoder_adapter): Dropout(p=0.1, inplace=False)
                (encoder_adapter): Dropout(p=0.1, inplace=False)
              )
              (lora_A): ModuleDict(
                (decoder_adapter): Linear(in_features=4096, out_features=16, bias=False)
                (encoder_adapter): Linear(in_features=4096, out_features=16, bias=False)
              )
              (lora_B): ModuleDict(
                (decoder_adapter): Linear(in_features=16, out_features=1024, bias=False)
                (encoder_adapter): Linear(in_features=16, out_features=1024, bias=False)
              )
              (lora_embedding_A): ParameterDict()
              (lora_embedding_B): ParameterDict()
              (lora_magnitude_vector): ModuleDict()
            )
            (o_proj): lora.Linear(
              (base_layer): Linear(in_features=4096, out_features=4096, bias=False)
              (lora_dropout): ModuleDict(
                (decoder_adapter): Dropout(p=0.1, inplace=False)
                (encoder_adapter): Dropout(p=0.1, inplace=False)
              )
              (lora_A): ModuleDict(
                (decoder_adapter): Linear(in_features=4096, out_features=16, bias=False)
                (encoder_adapter): Linear(in_features=4096, out_features=16, bias=False)
              )
              (lora_B): ModuleDict(
                (decoder_adapter): Linear(in_features=16, out_features=4096, bias=False)
                (encoder_adapter): Linear(in_features=16, out_features=4096, bias=False)
              )
              (lora_embedding_A): ParameterDict()
              (lora_embedding_B): ParameterDict()
              (lora_magnitude_vector): ModuleDict()
            )
          )
          (mlp): MistralMLP(
            (gate_proj): lora.Linear(
              (base_layer): Linear(in_features=4096, out_features=14336, bias=False)
              (lora_dropout): ModuleDict(
                (decoder_adapter): Dropout(p=0.1, inplace=False)
                (encoder_adapter): Dropout(p=0.1, inplace=False)
              )
              (lora_A): ModuleDict(
                (decoder_adapter): Linear(in_features=4096, out_features=16, bias=False)
                (encoder_adapter): Linear(in_features=4096, out_features=16, bias=False)
              )
              (lora_B): ModuleDict(
                (decoder_adapter): Linear(in_features=16, out_features=14336, bias=False)
                (encoder_adapter): Linear(in_features=16, out_features=14336, bias=False)
              )
              (lora_embedding_A): ParameterDict()
              (lora_embedding_B): ParameterDict()
              (lora_magnitude_vector): ModuleDict()
            )
            (up_proj): lora.Linear(
              (base_layer): Linear(in_features=4096, out_features=14336, bias=False)
              (lora_dropout): ModuleDict(
                (decoder_adapter): Dropout(p=0.1, inplace=False)
                (encoder_adapter): Dropout(p=0.1, inplace=False)
              )
              (lora_A): ModuleDict(
                (decoder_adapter): Linear(in_features=4096, out_features=16, bias=False)
                (encoder_adapter): Linear(in_features=4096, out_features=16, bias=False)
              )
              (lora_B): ModuleDict(
                (decoder_adapter): Linear(in_features=16, out_features=14336, bias=False)
                (encoder_adapter): Linear(in_features=16, out_features=14336, bias=False)
              )
              (lora_embedding_A): ParameterDict()
              (lora_embedding_B): ParameterDict()
              (lora_magnitude_vector): ModuleDict()
            )
            (down_proj): lora.Linear(
              (base_layer): Linear(in_features=14336, out_features=4096, bias=False)
              (lora_dropout): ModuleDict(
                (decoder_adapter): Dropout(p=0.1, inplace=False)
                (encoder_adapter): Dropout(p=0.1, inplace=False)
              )
              (lora_A): ModuleDict(
                (decoder_adapter): Linear(in_features=14336, out_features=16, bias=False)
                (encoder_adapter): Linear(in_features=14336, out_features=16, bias=False)
              )
              (lora_B): ModuleDict(
                (decoder_adapter): Linear(in_features=16, out_features=4096, bias=False)
                (encoder_adapter): Linear(in_features=16, out_features=4096, bias=False)
              )
              (lora_embedding_A): ParameterDict()
              (lora_embedding_B): ParameterDict()
              (lora_magnitude_vector): ModuleDict()
            )
            (act_fn): SiLU()
          )
          (input_layernorm): MistralRMSNorm((4096,), eps=1e-05)
          (post_attention_layernorm): MistralRMSNorm((4096,), eps=1e-05)
        )
      )
      (norm): MistralRMSNorm((4096,), eps=1e-05)
      (rotary_emb): MistralRotaryEmbedding()
    )
    (lm_head): Linear(in_features=4096, out_features=32011, bias=False)
  )
)
dataset: /mnt/ceph_rbd/comp_rag/unirag/debug_data/pretrain_data.jsonl
æ‰“å°æ•°æ® .jsonl /mnt/ceph_rbd/comp_rag/unirag/debug_data/pretrain_data.jsonl
loaded /mnt/ceph_rbd/comp_rag/unirag/debug_data/pretrain_data.jsonl with data_files=/mnt/ceph_rbd/comp_rag/unirag/debug_data/pretrain_data.jsonl
[Dataset({
    features: ['data_type', 'question', 'answers', 'docs'],
…
