…
/mnt/ceph_rbd/conda_env/cprag/lib/python3.10/site-packages/peft/tuners/tuners_utils.py:196: UserWarning: Already found a `peft_config` attribute in the model. This will lead to having multiple adapters in the model. Make sure to know what you are doing!
  warnings.warn(
Loading checkpoint adapter: encoder_adapter
/mnt/ceph_rbd/conda_env/cprag/lib/python3.10/site-packages/peft/tuners/tuners_utils.py:196: UserWarning: Already found a `peft_config` attribute in the model. This will lead to having multiple adapters in the model. Make sure to know what you are doing!
  warnings.warn(
æ‰“å°æ•°æ® .jsonl /mnt/ceph_rbd/comp_rag/unirag/debug_data/instruction_tuning_data.jsonl
æ‰“å°æ•°æ® .jsonl /mnt/ceph_rbd/comp_rag/unirag/debug_data/instruction_tuning_data.jsonl
UniRAG(
  (decoder): MistralForCausalLM(
    (model): MistralModel(
      (embed_tokens): Embedding(32011, 4096)
      (layers): ModuleList(
        (0-31): 32 x MistralDecoderLayer(
          (self_attn): MistralAttention(
            (q_proj): lora.Linear(
              (base_layer): Linear(in_features=4096, out_features=4096, bias=False)
              (lora_dropout): ModuleDict(
                (decoder_adapter): Dropout(p=0.1, inplace=False)
                (encoder_adapter): Dropout(p=0.1, inplace=False)
              )
              (lora_A): ModuleDict(
                (decoder_adapter): Linear(in_features=4096, out_features=16, bias=False)
                (encoder_adapter): Linear(in_features=4096, out_features=16, bias=False)
              )
              (lora_B): ModuleDict(
                (decoder_adapter): Linear(in_features=16, out_features=4096, bias=False)
                (encoder_adapter): Linear(in_features=16, out_features=4096, bias=False)
              )
              (lora_embedding_A): ParameterDict()
              (lora_embedding_B): ParameterDict()
              (lora_magnitude_vector): ModuleDict()
            )
            (k_proj): lora.Linear(
              (base_layer): Linear(in_features=4096, out_features=1024, bias=False)
              (lora_dropout): ModuleDict(
                (decoder_adapter): Dropout(p=0.1, inplace=False)
                (encoder_adapter): Dropout(p=0.1, inplace=False)
              )
              (lora_A): ModuleDict(
                (decoder_adapter): Linear(in_features=4096, out_features=16, bias=False)
                (encoder_adapter): Linear(in_features=4096, out_features=16, bias=False)
              )
              (lora_B): ModuleDict(
                (decoder_adapter): Linear(in_features=16, out_features=1024, bias=False)
                (encoder_adapter): Linear(in_features=16, out_features=1024, bias=False)
              )
              (lora_embedding_A): ParameterDict()
              (lora_embedding_B): ParameterDict()
              (lora_magnitude_vector): ModuleDict()
            )
            (v_proj): lora.Linear(
              (base_layer): Linear(in_features=4096, out_features=1024, bias=False)
              (lora_dropout): ModuleDict(
                (decoder_adapter): Dropout(p=0.1, inplace=False)
                (encoder_adapter): Dropout(p=0.1, inplace=False)
              )
              (lora_A): ModuleDict(
                (decoder_adapter): Linear(in_features=4096, out_features=16, bias=False)
                (encoder_adapter): Linear(in_features=4096, out_features=16, bias=False)
              )
              (lora_B): ModuleDict(
                (decoder_adapter): Linear(in_features=16, out_features=1024, bias=False)
                (encoder_adapter): Linear(in_features=16, out_features=1024, bias=False)
              )
              (lora_embedding_A): ParameterDict()
              (lora_embedding_B): ParameterDict()
              (lora_magnitude_vector): ModuleDict()
            )
            (o_proj): lora.Linear(
              (base_layer): Linear(in_features=4096, out_features=4096, bias=False)
              (lora_dropout): ModuleDict(
                (decoder_adapter): Dropout(p=0.1, inplace=False)
                (encoder_adapter): Dropout(p=0.1, inplace=False)
              )
              (lora_A): ModuleDict(
                (decoder_adapter): Linear(in_features=4096, out_features=16, bias=False)
                (encoder_adapter): Linear(in_features=4096, out_features=16, bias=False)
              )
              (lora_B): ModuleDict(
                (decoder_adapter): Linear(in_features=16, out_features=4096, bias=False)
                (encoder_adapter): Linear(in_features=16, out_features=4096, bias=False)
              )
              (lora_embedding_A): ParameterDict()
              (lora_embedding_B): ParameterDict()
              (lora_magnitude_vector): ModuleDict()
            )
          )
          (mlp): MistralMLP(
            (gate_proj): lora.Linear(
              (base_layer): Linear(in_features=4096, out_features=14336, bias=False)
              (lora_dropout): ModuleDict(
                (decoder_adapter): Dropout(p=0.1, inplace=False)
                (encoder_adapter): Dropout(p=0.1, inplace=False)
              )
              (lora_A): ModuleDict(
                (decoder_adapter): Linear(in_features=4096, out_features=16, bias=False)
                (encoder_adapter): Linear(in_features=4096, out_features=16, bias=False)
              )
              (lora_B): ModuleDict(
                (decoder_adapter): Linear(in_features=16, out_features=14336, bias=False)
                (encoder_adapter): Linear(in_features=16, out_features=14336, bias=False)
              )
              (lora_embedding_A): ParameterDict()
              (lora_embedding_B): ParameterDict()
              (lora_magnitude_vector): ModuleDict()
            )
            (up_proj): lora.Linear(
              (base_layer): Linear(in_features=4096, out_features=14336, bias=False)
              (lora_dropout): ModuleDict(
                (decoder_adapter): Dropout(p=0.1, inplace=False)
                (encoder_adapter): Dropout(p=0.1, inplace=False)
              )
              (lora_A): ModuleDict(
                (decoder_adapter): Linear(in_features=4096, out_features=16, bias=False)
                (encoder_adapter): Linear(in_features=4096, out_features=16, bias=False)
              )
              (lora_B): ModuleDict(
                (decoder_adapter): Linear(in_features=16, out_features=14336, bias=False)
                (encoder_adapter): Linear(in_features=16, out_features=14336, bias=False)
              )
              (lora_embedding_A): ParameterDict()
              (lora_embedding_B): ParameterDict()
              (lora_magnitude_vector): ModuleDict()
            )
            (down_proj): lora.Linear(
              (base_layer): Linear(in_features=14336, out_features=4096, bias=False)
              (lora_dropout): ModuleDict(
                (decoder_adapter): Dropout(p=0.1, inplace=False)
                (encoder_adapter): Dropout(p=0.1, inplace=False)
              )
              (lora_A): ModuleDict(
                (decoder_adapter): Linear(in_features=14336, out_features=16, bias=False)
                (encoder_adapter): Linear(in_features=14336, out_features=16, bias=False)
              )
              (lora_B): ModuleDict(
                (decoder_adapter): Linear(in_features=16, out_features=4096, bias=False)
                (encoder_adapter): Linear(in_features=16, out_features=4096, bias=False)
              )
              (lora_embedding_A): ParameterDict()
              (lora_embedding_B): ParameterDict()
              (lora_magnitude_vector): ModuleDict()
            )
            (act_fn): SiLU()
          )
          (input_layernorm): MistralRMSNorm((4096,), eps=1e-05)
          (post_attention_layernorm): MistralRMSNorm((4096,), eps=1e-05)
        )
      )
      (norm): MistralRMSNorm((4096,), eps=1e-05)
      (rotary_emb): MistralRotaryEmbedding()
    )
    (lm_head): Linear(in_features=4096, out_features=32011, bias=False)
  )
)
dataset: /mnt/ceph_rbd/comp_rag/unirag/debug_data/instruction_tuning_data.jsonl
æ‰“å°æ•°æ® .jsonl /mnt/ceph_rbd/comp_rag/unirag/debug_data/instruction_tuning_data.jsonl
Generating train split: 0 examples [00:00, ? examples/s]Generating train split: 1000 examples [00:00, 40996.83 examples/s]
æ‰“å°æ•°æ® .jsonl /mnt/ceph_rbd/comp_rag/unirag/debug_data/instruction_tuning_data.jsonl
…
